…
W tensorflow/core/platform/cpu_feature_guard.cc:45] The TensorFlow library wasn't compiled to use AVX2 instructions, but these are available on your machine and could speed up CPU computations.
W tensorflow/core/platform/cpu_feature_guard.cc:45] The TensorFlow library wasn't compiled to use FMA instructions, but these are available on your machine and could speed up CPU computations.
[2017-04-20 00:56:26,251] Making new env: CartPole-v0
_________________________________________________________________
Layer (type)                 Output Shape              Param #   
=================================================================
input_1 (InputLayer)         (None, 4)                 0         
_________________________________________________________________
dense_1 (Dense)              (None, 16)                80        
_________________________________________________________________
activation_1 (Activation)    (None, 16)                0         
_________________________________________________________________
dense_2 (Dense)              (None, 16)                272       
_________________________________________________________________
activation_2 (Activation)    (None, 16)                0         
_________________________________________________________________
dense_3 (Dense)              (None, 16)                272       
_________________________________________________________________
activation_3 (Activation)    (None, 16)                0         
_________________________________________________________________
dense_4 (Dense)              (None, 2)                 34        
_________________________________________________________________
activation_4 (Activation)    (None, 2)                 0         
=================================================================
Total params: 658
Trainable params: 658
Non-trainable params: 0
_________________________________________________________________
experted model in original setting:
Starting episode 0
Total reward: 74.0
Starting episode 1
Total reward: 21.0
Starting episode 2
Total reward: 93.0
Starting episode 3
Total reward: 30.0
Starting episode 4
…
